Model: "sequential"
_________________________________________________________________
 Layer (type)                Output Shape              Param #   
=================================================================
 vgg16 (Functional)          (None, 4, 4, 512)         14714688  
                                                                 
 flatten (Flatten)           (None, 8192)              0         
                                                                 
 dense (Dense)               (None, 1024)              8389632   
                                                                 
 dropout (Dropout)           (None, 1024)              0         
                                                                 
 dense_1 (Dense)             (None, 2)                 2050      
                                                                 
=================================================================
Total params: 23,106,370
Trainable params: 15,471,106
Non-trainable params: 7,635,264
_________________________________________________________________
Epoch 1/14
178/178 - 13s - loss: 0.6634 - accuracy: 0.6289 - val_loss: 0.6442 - val_accuracy: 0.6554 - 13s/epoch - 37ms/step
…
